A.H.V(BETA)/Assets/9_ONNX/Pyramids-500113.onnx (onnx, 773831 bytes, 12 tensors)

action_model._discrete_distribution.branches.0.bias f4 [5]
00000000: 3bc6 cabb 6db9 a83c 4b36 3fbc 42df daba
00000010: e4ca f9bb
-0.0061881817 0.02059623 -0.011670659 -0.0016698616 -0.0076230634

action_model._discrete_distribution.branches.0.weight f4 [5, 128]
00000000: f18a 39bc d82e b7bb f234 95b9 237b 2ebc
00000010: c6f1 cbbb 30c7 073c 689f 163c c9eb 96bb
00000020: 5907 48ba 4f96 a2bb a9e8 6abb c265 aa3b
00000030: 80d8 59bc 64b9 18bc 009a a1bc 8536 a4bb
00000040: c7b9 6f3c 082c f7bb 1d7d c1bb a195 be3b
00000050: 662f b83b 0e66 dfbb 6b5f 323c 0138 853b
00000060: 2b4b 0d3b 7b48 513b b8ad c53b 714a 51bb
00000070: e062 72bb 0dd8 163c a781 4ebc dc7f 2f3c
00000080: 2e86 253c 7eec 573c 2abe f3bb 7f09 37bc
00000090: a40e 303c 0d62 16bb 5b95 5b3c 222a 1ebc
000000a0: 48cd 953a b267 3fbc cf44 05bc de50 743b
000000b0: 3ba1 6539 5ab9 4a3c 69ec 26bb 4ae9 9f3c
000000c0: f2c8 62bc 482b 6a3b 29fe 143c 16f9 153c
000000d0: 7274 94ba aa2e 1c3c 0e1b 523c 6d4f 30bc
000000e0: 1760 f7bb 316d cbba 1108 10bc db03 b33b
000000f0: be36 553c 055f 26bc 9ac8 a83b 1949 993b
00000100: ccd8 883b 333b 883c 5ec9 5abc e7a2 a0bc
00000110: aee0 043c acfd 5c3c 5e46 333c a1a7 e1bb
00000120: 95b4 24bc 66b6 a93c 46f1 44bc e358 99bb
00000130: 4fcb fbbb 3f61 2b3b 2dca 5f3b 75f3 bb3a
00000140: 3541 02bc 3ba2 793b 284e 13bc ac10 84bc
00000150: d771 e6bb a0fd 4bbc 226b 333c 59e8 22bc
00000160: d45b 9a3b 7aed ae3c 2f36 0abc 18cf 583b
00000170: 298b 59bc 341c 0cbc 87bd b13b 7674 bcbb
00000180: 75dc 513b 6a72 23bc dae4 2b3c 9d42 823c
00000190: 7b25 80ba fc56 ad3a bf63 db3b 5c9e ce3a
000001a0: 3a15 a83a 63aa 12bc 59ad 033c 06ef c5bc
000001b0: 358d 663c 94f3 11bc 6718 003c 502b 6a3c
000001c0: b3e2 b73b f9fd 31bb e5b5 46bb b219 7a3c
000001d0: 5916 2dbc 2f94 c23b 4e77 443c 8494 84bc
000001e0: 6f17 3bbc 5ad3 273c 290c d7bb e5b9 a1bb
000001f0: c7dd 723c ed9a f739 3ae3 2d38 51c0 473b
00000200: 0b7b d13b 0d05 5b3c ec34 a3bc 6755 e13c
00000210: af55 283d 4c37 4fbc ed7b 8ebc 79b0 fc3b
00000220: b8cf 7c3c cfb1 893c 4289 6b3c bfb2 093d
00000230: 191c aa3b 42ff 033d eeaf 163c 0411 df3c
00000240: dd2f 0dbd c596 093d ebcc b03c faf0 f7bb
00000250: 4380 03bc c692 c2bc 2c36 f8bc a668 07bd
00000260: e7fa aebc cafd e93b addb d8bc 9cac a13c
00000270: c793 ad3c 9d0d e9bc 23f6 993b 5a51 02bd
00000280: 9fa0 aebc 3534 f3bc 513f dfbc 0058 943c
00000290: 1b7f 0f3d 89d6 b2bb 36f6 ebbc 36a3 8d3c
000002a0: 06f6 6e3c e1b7 053d 652f 78bc 5da9 0dbd
000002b0: 1070 693c 5f93 00bd e866 53bc 9d8c 8ebc
000002c0: 4573 3b3c 417c 0abd 3307 08bd db3e 45bc
000002d0: cfde 023c 058d eabc bf47 8bbc 979f d43c
000002e0: 9ad9 393c 2333 abbb 6814 0b3d 8ca6 24bd
000002f0: cbbb c3bc ad86 223c f3bc 883c 6cbc b7bc
00000300: 895e 03bd 025e b1bc 758d 34bc c814 3d3c
00000310: 5d06 0bbd 6267 bfbc 24e6 183b 2377 9a3c
00000320: 0840 8e3c 825b a5bc 2cd4 3ebc aaaa e5bc
00000330: dd8d 6bbc 4d42 d0bb 0e2d 10bc b229 83bb
00000340: 5b8e 043d bd71 93bc 4c1e 853c 8e82 063c
00000350: 47c1 2bbb b132 05bc 51d0 04bd 496e 15bd
00000360: 304c ad3c 605a 89bc ddf2 633c 62f3 8bbc
00000370: 901f 38bb 9969 193c 6914 c4bb e14c dabb
00000380: 8a28 973c d5e2 8c3a f044 d2bb d0f2 1fbd
00000390: 697f d8bb 45c8 82bc a733 c53b f083 be3c
000003a0: 4a2e 25bc 5137 a13c 1b7e d0bc c3c0 623c
000003b0: 11c5 86bc ce6d 493c 1e26 09bd 96d0 e6bc
000003c0: b3b8 98bc b32e b13c d623 01bc 9139 12bd
000003d0: 1d5c d83c 694d 53bc f642 f9bc c775 463c
000003e0: 1cf2 abbc d14e 8c3c 117f 813c 9769 473b
000003f0: 504f 11bd f999 19bc b405 9abc 35ef 91bc
-0.01132463 -0.005590301 -0.00028458942 -0.010649475 -0.00622389 0.008287236 0.009193279 -0.0046057445
-0.00076304894 -0.004961766 -0.0035844243 0.0052001188 -0.0132962465 -0.009321544 -0.019726753 -0.005011382
0.014631695 -0.0075430907 -0.0059048072 0.005816177 0.0056208847 -0.006817586 0.010887007 0.004065514
0.0021559696 0.003193407 0.006032672 -0.003193524 -0.0036985204 0.009206784 -0.012604154 0.010711636
0.010102792 0.013178943 -0.007438441 -0.011171698 0.010745678 -0.0022946626 0.013402308 -0.0096536
0.0011428976 -0.011682438 -0.008134081 0.0037279646 0.00021899205 0.012373293 -0.0025470501 0.01952042
-0.013841854 0.0035731364 0.0090938 0.009153625 -0.0011326207 0.00953261 0.012823833 -0.010761124
-0.0075492966 -0.0015520212 -0.008790986 0.005463106 0.01301354 -0.01015449 0.0051508667 0.0046779034
0.004176235 0.01662979 -0.013353674 -0.019608928 0.008110208 0.013488214 0.01094207 -0.006886438
-0.01005282 0.020716857 -0.012020415 -0.0046797856 -0.0076841484 0.0026150492 0.0034147606 0.0014339524
-0.007950117 0.0038091082 -0.008990802 -0.016121231 -0.0070326137 -0.012450606 0.010950835 -0.009943091
0.004710654 0.021353472 -0.00843577 0.0033082422 -0.013277807 -0.008551646 0.0054242047 -0.005751188
0.0032022272 -0.009976009 0.010491574 0.015900904 -0.0009776795 0.0013224776 0.0066952403 0.0015763748
0.0012823709 -0.008951756 0.008036935 -0.024161827 0.014071752 -0.008908171 0.007818318 0.014292553
0.0056117414 -0.0027159436 -0.003032082 0.015264915 -0.01056441 0.005938075 0.011991335 -0.016184099
-0.011419161 0.010243261 -0.006562729 -0.0049354904 0.014823384 0.0004722694 4.1458035e-05 0.003047962
0.0063928417 0.013367903 -0.019922696 0.027506543 0.04109734 -0.012647461 -0.017393077 0.007711467
0.015430383 0.016808419 0.0143759865 0.03361773 0.005191338 0.032225855 0.009197218 0.027229793
-0.034469474 0.03359105 0.021582088 -0.0075665684 -0.008026185 -0.023751628 -0.030299269 -0.033058785
-0.021359874 0.0071408497 -0.026471937 0.019735627 0.02118863 -0.028448874 0.0046985312 -0.031815864
-0.021316824 -0.02968798 -0.027251871 0.018108368 0.035033327 -0.0054577035 -0.028803926 0.01728974
0.014585024 0.032646064 -0.0151480185 -0.034585346 0.014247909 -0.031390544 -0.012902953 -0.017401034
0.011441057 -0.033809904 -0.03320999 -0.012038912 0.007987692 -0.028631696 -0.017001985 0.025955005
0.011343384 -0.005224602 0.033955008 -0.040197894 -0.023893258 0.0099198045 0.01669166 -0.022428714
-0.032072578 -0.021651272 -0.011020054 0.011540599 -0.033941615 -0.023364726 0.0023330534 0.018855637
0.017364517 -0.020185236 -0.011647265 -0.02803548 -0.014377085 -0.00635556 -0.008799804 -0.004002773
0.032362323 -0.01799857 0.016249798 0.008209838 -0.0026207732 -0.008129762 -0.03242523 -0.03648213
0.021154493 -0.016766727 0.013912884 -0.017083827 -0.0028094985 0.009363555 -0.0059838784 -0.0066619967
0.018451948 0.0010748754 -0.0064169094 -0.039049923 -0.0066069853 -0.015964637 0.0060181203 0.023256272
-0.010081837 0.019679697 -0.025450757 0.013839903 -0.01645139 0.012294246 -0.033483617 -0.028175633
-0.018642759 0.021628713 -0.007882079 -0.03569943 0.02641111 -0.012896874 -0.030427437 0.012113041
-0.02098947 0.017127426 0.01580766 0.0030427927 -0.03547603 -0.009375089 -0.018801548 -0.017814258

network_body._body_endoder.seq_layers.0.bias f4 [128]
00000000: d191 263b 5858 983c 99da 57ba a795 4fbb
00000010: 42d2 2fbc a061 0ebb a481 533c 22f2 89bc
00000020: b63b 52bc fc41 bfbb 80cf 2bbb 3ef6 c0bc
00000030: 8b84 293b 40cb 083c a299 bbba 139a 33ba
00000040: c1f9 e4bb 0a36 27bc df82 ae3c c5ac e6ba
00000050: 51b7 993c 40c5 8cbb b525 0b38 6ea1 9e3c
00000060: 6e00 8e3a 20ce 0bbb e33f 9abb dfe1 b53b
00000070: c39a 913c dd4e e5ba 2e4f 23bb c36f 7b3b
00000080: 49f5 d0ba f5d8 f43b 1689 08bc 9784 83bc
00000090: ee60 893c 0db0 2bbc 860a 45bb 0880 7e3c
000000a0: 47bc 133c 8ae4 edbb 8c5c 203c f647 6dbb
000000b0: 7a39 533c 382f 133b e4e7 0abc 708f 423b
000000c0: b2e2 863c 8d32 57bc 58ea 48bb 31c7 8b3c
000000d0: 08d4 17bc fd72 5f3c 4fb1 fd3a 6909 c6bb
000000e0: 58eb 07bc 5162 f5bb af64 c43b 904c fabb
000000f0: ddf3 7c3c 360b bb3b 501c 42bc c2cb 803c
00000100: 4c4a 413a b877 973b 732c 98bb 9136 543b
00000110: 6f45 613c 478c f3bb 5f2f 193b 2b5c 9e3c
00000120: e3ea 513c 1f5b 2fbb bce8 90bb c279 d0bb
00000130: 26f1 e2bb e2e0 2dbc 6322 4dbc 4873 763b
00000140: 73cf 01bc 467f ffbb 5190 e2bb 8263 56b9
00000150: 6bc1 473c df93 f0bb f0f9 a5ba eb50 05bc
00000160: 6693 b83b aa8a 8d3c 10ee f8bb 31d1 6dbc
00000170: 4bee 193c 8f29 97bb 6121 b93b 97e2 01bc
00000180: dea5 2abc 129e 9e3c b7e3 e239 833b 953a
00000190: bbf0 92bc 3eae 7b3b c9ca feba 02e1 f43a
000001a0: 2442 733b 888a f4bb fbf7 793c e954 573c
000001b0: c1a4 9f3b 8705 ffbb ea96 ba3c 7d6e 4dbb
000001c0: 4396 54bc fc5b 98b9 9755 8e3c 14c8 5dbc
000001d0: 02c2 bebb b1f5 923c b2de 943c 3abf 84bb
000001e0: ee67 1b3c 28b5 bebb 2e42 4cba d91d cb3a
000001f0: 6a71 263c 9929 1dbc c45c c23a 5d5e e03b
0.0025416503 0.018596813 -0.0008234173 -0.0031674893 -0.010731282 -0.002172567 0.012909327 -0.01683909
-0.012831619 -0.0058367234 -0.002621621 -0.023554917 0.0025866355 0.00834924 -0.0014312754 -0.0006851267
-0.006987781 -0.010205755 0.021302639 -0.0017599097 0.01876417 -0.004295975 3.31753e-05 0.019364085
0.0010833868 -0.0021332577 -0.004707323 0.0055506076 0.017773991 -0.0017494817 -0.002491902 0.0038366176
-0.0015942241 0.0074721524 -0.008333465 -0.016054435 0.016769852 -0.0104789855 -0.0030066087 0.015533455
0.009017057 -0.00725991 0.00978769 -0.0036206222 0.012892121 0.0022458564 -0.008478139 0.0029687546
0.016465519 -0.013134611 -0.0030657258 0.017062755 -0.009266861 0.013638255 0.001935521 -0.0060436022
-0.008295856 -0.007488527 0.0059934477 -0.0076385215 0.015439001 0.0057081236 -0.011847571 0.01572216
0.0007373437 0.004622426 -0.0046439706 0.0032381157 0.013749464 -0.007432494 0.0023374183 0.019331058
0.012812349 -0.0026757193 -0.0044222753 -0.006362171 -0.00692572 -0.010612698 -0.012520405 0.0037605334
-0.007922995 -0.0077971546 -0.0069141765 -0.000204457 0.0121921105 -0.0073418464 -0.0012662988 -0.008136968
0.0056328056 0.017278034 -0.0075967386 -0.014515207 0.009395192 -0.0046131085 0.005649731 -0.007927558
-0.010415522 0.019362483 0.0004327574 0.0011385534 -0.017937055 0.0038403417 -0.0019439097 0.001868278
0.003711828 -0.0074628033 0.015256877 0.013142803 0.004871935 -0.0077826413 0.02277704 -0.0031346374
-0.012975278 -0.00029060233 0.017374797 -0.013536472 -0.0058214674 0.01793942 0.018172596 -0.0040511163
0.009485228 -0.0058199354 -0.0007791844 0.0015496566 0.010158876 -0.009592437 0.0014828672 0.0068471865

network_body._body_endoder.seq_layers.0.weight f4 [128, 128]
00000000: 261d 173e 543f c53d 9ba6 0ebe 3cb2 5ebc
00000010: 6b5c 273c 41ac 3b3d 19cc 103d d0ca 913d
00000020: 7024 1d3d 6049 ea3d 1b8c 233e aeed d43c
00000030: d9be 07be 8d85 d2bb 8cf1 3e3d d10d c03c
00000040: 1371 17bd 1034 45bd 10b3 4e3c b458 1c3e
00000050: ae00 2fbe a915 8ebd eb9f 19bd 583b 88bd
00000060: 05d0 9c3d 2c72 d03c bf40 16bd 9c88 163e
00000070: 43ee cd3d 85c1 5abc 92dc 3dbd bb03 8d3d
00000080: 9e3b fabd afee 48bd 0d29 18bd 4778 863d
00000090: f670 ccbd 0145 5e3b 555b 6cbd 62e0 13bc
000000a0: 1f69 833d 0f06 99bc ef25 c8bd 28eb f4bd
000000b0: 9e0f 8dbd 8afa 76bc 6bd7 6cbc ff3a 893d
000000c0: 1518 88bd 5c68 0b3e 1625 7a3d 802c 873d
000000d0: 3650 d7bd 807a 2cbe dcf7 293d 6751 0bbc
000000e0: 5d0c d53d 426d 29be a2b2 4e3c 516f d7bd
000000f0: 91ec 1f3c 78c9 023e bc3e d2bd 20c6 80bd
00000100: ab99 3fbc ea44 c6bc 0d91 a3bd b81e b63d
00000110: c69e 07bd d61a b0bc eecb 31be 4c72 f73c
00000120: 8fdf 373d f6d5 1ebd 21b3 063d 1dc6 d93d
00000130: 630f 27bc f616 1dbe d0df 56bd aa53 293e
00000140: 5997 213d 5de5 793d 4b48 d4bd b915 bf3d
00000150: e410 9fbd 5a36 c2bd 8bfd 4bbd 3a38 97bd
00000160: eeae eebc a4ff dcbd a061 563c 1286 b8bc
00000170: a769 45be 6056 aabd c307 cdbd f3c2 663d
00000180: 1b14 92bd 7d74 b8bd b44c a9bb bacf 29be
00000190: 7e22 debb 099a 93bd cead 09be b3cf f6bc
000001a0: 93a1 3abe 7502 28be 0732 17bd 6e8b d6bd
000001b0: 16d6 e039 736a e5bb 24de 00bd a762 88bd
000001c0: 61ee 143e bc4f 0f3e 5734 8abd 4b79 21bb
000001d0: 5155 b23d fab7 623d a828 003e b1a7 833d
000001e0: 9c1e 3f3e 95ce 703d 8164 58bd c629 043e
000001f0: 82c0 3f3d a3f9 37bc 8597 a03d 933b 7fbd
00000200: 3fe0 1a3d 8ec1 bcbc e23e 163c dc0d 08bd
00000210: 494c f2bc 5094 5f3e 6d5c 0cbe 35bf 3bbd
00000220: 6dff 73bd 8abd 9c3d eda3 983d e789 163d
00000230: a447 41bd fafd 77bc 8764 37ba 1894 633d
00000240: 9845 223e f40c 24bb 3947 02be 74ef fe3c
00000250: c323 81bd 610c e43b 5c78 513d d8cf 173e
00000260: e876 02be 7b06 e83d 66d7 1dbe 4bf7 4fbe
00000270: 93db 6a3d 042a 0e3e 0a03 5abd 985f 283d
00000280: b99e c7bd 0da0 d73d 3a7c e7bd c764 f4bd
00000290: 83c7 883d 7e30 70bd b9ef 0ebb 1778 83bd
000002a0: cb48 19bc cbb6 eabd dea5 493d 59bf 573c
000002b0: 5432 f23c 4477 f13d 66d6 903c 935e 8e3d
000002c0: b913 03bc 6828 d33d 10d0 b6bd 888a bfbd
000002d0: 2560 263c 8c57 f4bd d940 a43d 7739 9fbd
000002e0: 4d73 8abd 51c9 8dbd 2d34 da3d 810e 8f3c
000002f0: 4c2d 68be 790c eebc 76df 77bd c6bc 4c3d
00000300: 1702 e1bc 1092 d03d 59d8 883d ac1c edbd
00000310: f11f 1e3e 4d7d 103e 7610 4dbe 9953 e53d
00000320: 71ca 043e e697 86bc 11a6 c23c 81be 1d3e
00000330: d4f2 d43c 7e58 003e db72 59bd 1b77 173e
00000340: 0121 f73d dd9b 4f3d d4e9 6dbd b75e 653d
00000350: 5e08 8e3d d217 e1bd bbe2 4bbd b63c 333c
00000360: 3210 223e 54e2 b2bd 9e2b 3d3e 000d 5cbc
00000370: c595 a93d d841 263c 83df 6e3d d16a 213e
00000380: 6866 f6bd a155 33bd f056 bebd 5a52 6f3d
00000390: 653b 4b3d de46 9abc 9fb2 eb3d e183 4f3d
000003a0: 8b18 803d add2 0a3e 10f1 2e3d 6e7e ca3d
000003b0: 562b 7ebd 1e57 14be e1bd e3bb 9130 9bbc
000003c0: 85ef e23a 46f4 2dbd 7cc0 a13d d5b8 83bd
000003d0: f889 2b3c ae8d f8bc ca11 b1bc c2b8 463d
000003e0: bf6e ff3c 3976 2ebe e2c4 84bd c59f 9cbd
000003f0: db72 2bbd 6940 19bd fc4b 6c3d d5f4 113c
0.14757213 0.096312195 -0.13930742 -0.013592299 0.010214905 0.04581857 0.035350893 0.071187615
0.038364828 0.114397764 0.15971415 0.02599224 -0.13256396 -0.006424612 0.046617076 0.023444088
-0.03697307 -0.048145354 0.012615934 0.15268213 -0.17090103 -0.06937725 -0.037506025 -0.06651944
0.07656864 0.025445066 -0.03668284 0.1470055 0.100552104 -0.013351803 -0.04635293 0.06885477
-0.12218402 -0.04905575 -0.037148524 0.0656591 -0.09982483 0.0033915641 -0.05770429 -0.009025665
0.06416535 -0.018679647 -0.0977286 -0.11958915 -0.06887744 -0.015074382 -0.0144556565 0.06700706
-0.06645218 0.13614029 0.061070524 0.066002846 -0.10513346 -0.16843605 0.041496143 -0.008503295
0.10402749 -0.16545585 0.012615832 -0.10519279 0.009760992 0.12772167 -0.10265872 -0.06287789
-0.011694352 -0.024202783 -0.079866506 0.08892578 -0.033110403 -0.021497171 -0.17362949 0.030205868
0.044890936 -0.038778268 0.032885674 0.1063349 -0.01019654 -0.1534079 -0.052459538 0.16535822
0.039450977 0.061009753 -0.10365351 0.09330315 -0.077668935 -0.09483023 -0.049802344 -0.07383771
-0.029136147 -0.10790947 0.013084799 -0.022524867 -0.19278584 -0.08317256 -0.10011246 0.05633826
-0.07132741 -0.090065934 -0.0051666144 -0.16583148 -0.006779014 -0.07207114 -0.13445207 -0.030128336
-0.18225698 -0.16407187 -0.036912944 -0.10475813 0.00042884116 -0.007001215 -0.03146185 -0.066594414
0.1454406 0.1399526 -0.06748264 -0.0024638947 0.08707679 0.055351235 0.12515509 0.06428469
0.1866402 0.058790762 -0.052830223 0.1290656 0.04681445 -0.011228952 0.078414 -0.062312674
0.037811514 -0.023041513 0.009170266 -0.033216342 -0.029577391 0.2183392 -0.13707133 -0.045836646
-0.059569765 0.07653339 0.07453141 0.036752608 -0.047187462 -0.015136236 -0.0006995876 0.055561155
0.1584686 -0.0025032135 -0.12722482 0.03112004 -0.06305649 0.0069594835 0.051140174 0.1482538
-0.12740672 0.11329361 -0.15414199 -0.20309179 0.05733831 0.13883215 -0.053225555 0.04110679
-0.09747071 0.10528574 -0.11302991 -0.11933284 0.06678679 -0.058639996 -0.0021810366 -0.0641939
-0.009355734 -0.11460646 0.04923045 0.013168179 0.029565014 0.11790326 0.017680358 0.06951632
-0.008000308 0.10310441 -0.089264035 -0.093525946 0.010154759 -0.11930761 0.08020181 -0.077746324
-0.06760273 -0.06923164 0.10654483 0.01746297 -0.2267353 -0.029058682 -0.060515843 0.049984716
-0.027466817 0.10184109 0.0668189 -0.11577734 0.15441872 0.14110298 -0.2002581 0.111975856
0.1296785 -0.016429853 0.023760827 0.15404703 0.025994696 0.12533757 -0.05308805 0.14791529
0.12066842 0.050685752 -0.058084324 0.05599853 0.0693519 -0.109908715 -0.049776774 0.010939768
0.1582649 -0.08734575 0.1847367 -0.013430834 0.082805194 0.010147534 0.058318626 0.15763403
-0.12031251 -0.043782834 -0.09293926 0.058428146 0.04961719 -0.01883262 0.11508679 0.05066288
0.06254681 0.13556929 0.042710364 0.09887396 -0.062053047 -0.14486358 -0.0069501256 -0.018944057
0.0017313814 -0.042469285 0.078980416 -0.06431738 0.010469906 -0.030340996 -0.021614928 0.048516043
0.031180738 -0.17037286 -0.06482865 -0.07647661 -0.04185758 -0.037414942 0.05768965 0.00890847

network_body._body_endoder.seq_layers.2.bias f4 [128]
00000000: fd44 6c3c 3db3 5c3c a64d 79bb e9e0 b03c
00000010: 0f60 bf3c 0f43 74bb 3780 34bc deaa e73b
00000020: be75 263c 6584 a03c 7fb6 4d3c 0499 773c
00000030: 9e0d 243c 1484 b53c e7a6 6b3c 22a6 843c
00000040: 6456 60bc 0172 883c 6b19 873c 2a76 cdba
00000050: 6e98 36bc 1fdf 64bc 28a6 11bb 023a 9bba
00000060: c75d 12bc 5ab7 b33b 169a 39bc e1a8 813c
00000070: 9bbd 7f3c 08c6 91bc e256 023c 7717 4cbc
00000080: 52eb 33bb 64fa 9ebc b665 a5bb 5601 863c
00000090: d3ec a03c eb2e 573b b133 56bc 6250 973c
000000a0: 5648 c43b 5853 af3c 9724 693a 7609 0fbc
000000b0: b60c 9f3b 1bff 80bc 01c7 bfba 6fc6 23bc
000000c0: 9289 443c 0fa7 3fbc aef0 c53a 9de4 e6bb
000000d0: cf0a 333b c2a3 afbb 052f 0fbc bba8 9d3c
000000e0: 1319 4d3c 66d2 43bb 5855 943c 4293 a5bc
000000f0: bc3a d9bb f632 b33c 7625 333c 41f1 64bc
00000100: 760c cfbb f9b5 9bbb 1e93 38bc e95e 943c
00000110: 86a2 8ebb 6c1e ecbb e150 7cbb b999 463c
00000120: fd33 973c 0b69 b1ba 0de9 00bc 587f 51bc
00000130: f345 84ba 8298 4c3b b9a3 2fbb 3177 bf3a
00000140: 8300 8e3c 2150 45bc 4876 7a3c dbfd 0d3c
00000150: 944a 633b 91b7 84bb d22d 20bc d9fa e2bb
00000160: 3a85 8a3c dba5 0ebc b3f6 5d3c 38f7 88ba
00000170: 313f 813b 1c08 6c3c 51af ce3a edac 88bb
00000180: 8f37 773c 5a3a a0ba af72 2ebc adb2 cfbb
00000190: b82f 18bb dfeb 28bb 6132 9c3b e2d1 073c
000001a0: 2190 b7bb 1074 a93c 2402 1bbc dba6 983c
000001b0: 9a93 2abc 42d5 153c e014 30bc aede 9cbb
000001c0: 7520 4dbc 2b00 033c 0a1a 44bb 876f d8bb
000001d0: d3e9 983c 3300 9bbb 1701 60bc b14a 443c
000001e0: de54 a2bb 241c b73b 2805 723c 3b50 bbba
000001f0: 4915 3abb 5461 05bc cbc8 dabb 0d89 f1bb
0.014420745 0.013470468 -0.0038040667 0.02159162 0.023361234 -0.0037271415 -0.011016897 0.0070699295
0.010159908 0.01959438 0.0125557175 0.015112165 0.010013012 0.022157706 0.014383054 0.0161925
-0.013692472 0.016655924 0.016491612 -0.0015675474 -0.0111447405 -0.013969212 -0.002222428 -0.0011842849
-0.008933491 0.0054845037 -0.011328241 0.015827598 0.01560917 -0.017794624 0.007955285 -0.012456766
-0.0027453494 -0.019406505 -0.0050475253 0.016358059 0.019644177 0.0032834362 -0.013073848 0.018470947
0.0059900684 0.021402046 0.0008893697 -0.008730283 0.00485381 -0.015746644 -0.0014631451 -0.009996041
0.01199569 -0.011697545 0.0015101635 -0.007046296 0.0027319675 -0.0053600976 -0.008739238 0.019245496
0.012518185 -0.0029880046 0.018107101 -0.02021182 -0.006629316 0.021874886 0.010934224 -0.013973535
-0.006318624 -0.0047519174 -0.011265544 0.018111663 -0.0043528704 -0.007205775 -0.0038500356 0.012121611
0.018457407 -0.0013535334 -0.007868064 -0.012786709 -0.0010091647 0.0031218831 -0.0026800467 0.0014607665
0.017334228 -0.01204303 0.0152869895 0.008666481 0.0034681903 -0.004050203 -0.009776549 -0.006926876
0.01690923 -0.008706535 0.013547587 -0.0010449653 0.0039443006 0.01440623 0.0015768801 -0.004171005
0.01508893 -0.0012224421 -0.01064746 -0.0063384385 -0.0023221802 -0.0025775356 0.004766748 0.008289786
-0.0056018983 0.020685226 -0.00946096 0.01863425 -0.0104111675 0.009145083 -0.0107471645 -0.0047872877
-0.012519945 0.0079956455 -0.0029922747 -0.006605092 0.018666184 -0.0047302484 -0.013672135 0.011980698
-0.0049539646 0.0055880714 0.014771737 -0.0014290878 -0.0028394035 -0.008140881 -0.0066767684 -0.007371074

network_body._body_endoder.seq_layers.2.weight f4 [128, 128]
00000000: 3922 a73d 1caf 493d f8f1 b7bc 73b2 25be
00000010: 1014 14be 5f57 fd3d c917 f93c 9b54 cf3d
00000020: 5a54 dcbd 6155 273e de41 123e ca20 943d
00000030: 83e5 323d 318c 263e 14be f43d 3c0a 25be
00000040: fb9c d0bb ef78 283d 971c 073d 9641 e8bc
00000050: ab48 9abc 8491 3bbd 6ece e5bd 6d54 d6bc
00000060: 391f 6e3d 8062 5ebd 3434 82bd 3659 cf3d
00000070: 423d b6bc b008 833d ea40 a03d 5f93 9d3d
00000080: 8c74 883d 9065 26be dd97 95bd 0bd6 33bc
00000090: 4a57 a8bc 7c29 b7bd 8158 903c c3fe f73c
000000a0: 15c0 ebbb c306 c0bd da86 a13c 76ec 4c3e
000000b0: 5fd0 083d 059a 23be 9a1f 30bd f0b5 21bd
000000c0: 5b79 ac3d d7f9 733c 04ad 6c3d b778 35bc
000000d0: 1c6e f4bc 3ac1 3e3c e9aa 663e f4c1 b5bd
000000e0: 65c7 36bc 7142 00bc dad1 69be 3b08 dbbc
000000f0: c083 13be cffa afbd 0da8 38be 95fd 8d3c
00000100: b64f 753e 1eeb e93d f26e c33c e913 e33d
00000110: 507a 2fbd d97f eebd 745e 953c e0ea 323d
00000120: 8602 01be ec5b e33d 4066 72be f1fd 9e3d
00000130: 5e9a 17be 1abe c0bd cd3a 9cba cbc3 183e
00000140: 43b1 26bd 74cd 97bd 19d4 b6bd 875b 80bd
00000150: c9ee b43c 2170 99bd 844f b5bc 0c06 be3d
00000160: 5e41 a13c a406 c03d e2f8 3cb9 e9a0 0c3d
00000170: 4515 15be 482c 16bd 5e85 603c f95d 8f3c
00000180: 449f 1bbd 4ae8 003d 6e34 cc3d 1475 d8bb
00000190: 588a b63c 631f 663d 5d52 983b f8e2 033c
000001a0: 19fc f63d 038f bfbd 481e ba3d c550 74bd
000001b0: 4c80 083d 2419 9b3b 71d5 063c 190d 36be
000001c0: 06a5 15bd 1a08 673c 2d05 a63d 4793 3b3e
000001d0: 22f0 5fbd f114 cebd a602 323d d781 b9bd
000001e0: e382 2ebe 1bed 8f3d cd65 103e 0c7c 0d3e
000001f0: f49c 6ebd d694 213e 6ae1 7fbd f856 61bd
00000200: 89f7 ac3c 146f 1d3e a277 a63c 8ad2 8f3c
00000210: a883 aa3c 9918 fb3d 71b8 bc3d b8d9 38bd
00000220: 0479 7cbd 572b 8c3b 4b9b f03d 4e73 cabd
00000230: 8468 2a3e ed97 99bc e49d 77bb cc2e 923c
00000240: 14da 1f3d e146 633d 6ff8 db3d 304b e8bc
00000250: b7c2 733d e0c4 23be 22d5 3e3d e58f 113c
00000260: e4e7 abbc 59e4 18bc 6a8c 093d 21be 813d
00000270: 9516 a4bd 5f84 1abe 7c1d 023e f421 31bc
00000280: c21c a9bd 6f75 fbbd 8aea 803d c564 023e
00000290: e9f0 c83d 5086 e83d 3594 82bd b739 7ebd
000002a0: 590c 403e 779d d03c 8ca6 e1bc f3d8 6dbd
000002b0: 74ea 1abe d257 ff3d 6c40 ba3d 1114 333b
000002c0: f8e5 66bd 81f8 683d cd25 b2bc f130 1a3e
000002d0: 00b1 5e3d 879b 1d3e 0653 59be ff2f 79bd
000002e0: e831 3b3d c44d 92bc 4ae3 b0bd 5cbf 91bd
000002f0: 20dc b53c 63a0 fe3c 6ce3 babd fc3f 723e
00000300: f553 f0bd 97d2 7bbd 78a9 0cbe 0a74 7abc
00000310: e57c d0bc c32d 8fbd c444 56be f232 00bd
00000320: 9326 653c 6f5c 3fbe 6caa 7bbd 353b a63d
00000330: aa4d 66bd ec44 c13b 99af 813b d62b c03d
00000340: 6ab2 173e 6292 323e 0e85 253c 4a92 9cbd
00000350: 9217 373d 518c 453c d700 babc 1f6f 28be
00000360: 2b15 e73d 2e85 9d3c 7aed 123c 8874 94bd
00000370: 0508 133a 5ffc be3b 75ad 393e 6e6d 7f3d
00000380: 76ca b0bd 06f3 743d 8825 33bd de62 a73c
00000390: 2008 883d f106 bc3d f21d a4bc bbec f53b
000003a0: 6fed 40bd a125 ca3d 41ab af3d f824 6f3d
000003b0: 2954 c73c f760 463e 99f2 a03d 1fd6 893d
000003c0: 6c94 513d f2b3 55bc d0cd 7a3d bc23 89bd
000003d0: 219c 48bd a974 a73b 97fb 403c 1010 043d
000003e0: de58 83bd 0186 553d c519 5bbd 28a4 fa3c
000003f0: a858 23be e392 02be 4b76 6bbd cf4b f73c
0.08160824 0.049239263 -0.022454247 -0.16181354 -0.14460778 0.1237018 0.03040685 0.10123559
-0.10758276 0.16341163 0.14282939 0.072328165 0.04367591 0.16264416 0.11950317 -0.16117185
-0.00636637 0.041130956 0.03298625 -0.028351586 -0.018833479 -0.04579307 -0.11221014 -0.026163304
0.058135245 -0.054293156 -0.06357613 0.101244375 -0.022246007 0.063981414 0.078248814 0.076941244
0.066628546 -0.1624968 -0.07304356 -0.010976325 -0.020549435 -0.089434594 0.017620327 0.030272847
-0.007194529 -0.0937629 0.019717623 0.20012078 0.033401843 -0.15976723 -0.042998888 -0.03948015
0.08421584 0.014891109 0.057782188 -0.011076144 -0.02983766 0.0116427485 0.22526135 -0.08874884
-0.011155938 -0.007828341 -0.22833958 -0.026737323 -0.14405727 -0.0859276 -0.18032856 0.017332831
0.23956189 0.11421798 0.023856614 0.11087782 -0.042841256 -0.11645479 0.018233515 0.043681026
-0.12598619 0.11101517 -0.23671818 0.07763279 -0.1480498 -0.09411259 -0.001191938 0.14918439
-0.040696394 -0.07412234 -0.08927173 -0.062674575 0.022086518 -0.0749209 -0.022132643 0.09278497
0.01968449 0.093762666 -0.00018021793 0.034333143 -0.14558895 -0.036663324 0.013703672 0.017500864
-0.037993684 0.031471528 0.09970938 -0.0066057537 0.022282764 0.056182276 0.0046484903 0.008049719
0.120598026 -0.09353449 0.09087807 -0.05964734 0.03332548 0.0047332216 0.008229599 -0.17778434
-0.03653433 0.014101053 0.08106456 0.183179 -0.054672368 -0.10062588 0.043459557 -0.09057968
-0.17042117 0.07027646 0.14101334 0.13816851 -0.05825515 0.15779433 -0.06247083 -0.05501458
0.021114128 0.15374404 0.020320717 0.017556448 0.020814732 0.12260551 0.09214867 -0.045129508
-0.061638847 0.0042776274 0.1174837 -0.09885274 0.16641432 -0.018749202 -0.003778332 0.01784458
0.039026335 0.055487517 0.10740744 -0.028356165 0.059511866 -0.1599307 0.046589978 0.008884405
-0.020984598 -0.009331786 0.033581175 0.06335092 -0.0801212 -0.15089558 0.1270656 -0.010811318
-0.08257438 -0.12278258 0.06294735 0.12733753 0.09811575 0.11353743 -0.063759245 -0.06206676
0.1875471 0.02546571 -0.027545236 -0.058068227 -0.151285 0.12467922 0.09094319 0.0027325193
-0.05637166 0.056877617 -0.02174654 0.15057732 0.05436802 0.1539136 -0.21223077 -0.06083679
0.04570189 -0.017859347 -0.08637102 -0.07116577 0.02219969 0.031082338 -0.091254085 0.2365722
-0.117347635 -0.06148013 -0.13736522 -0.015286455 -0.02545018 -0.0699115 -0.2092467 -0.031298585
0.013986248 -0.18687604 -0.061441824 0.081167616 -0.05622641 0.0058981087 0.0039577004 0.09383361
0.14814153 0.17438653 0.0101025235 -0.0764509 0.044700213 0.01205738 -0.022705479 -0.1644864
0.11283334 0.019228544 0.008967752 -0.07248789 0.00056088 0.005828425 0.18132575 0.06236022
-0.08632366 0.059802078 -0.043736964 0.020432886 0.06642175 0.091810115 -0.02003381 0.007505027
-0.047101434 0.098704584 0.08577586 0.058384866 0.024332123 0.19372927 0.07858772 0.067302935
0.051166937 -0.013043391 0.061231434 -0.06696269 -0.04897702 0.0051103425 0.011778734 0.03224188
-0.064134344 0.05212975 -0.053491373 0.030595854 -0.15951788 -0.12751345 -0.05748586 0.030187516

network_body.observation_encoder.processors.0.conv_layers.0.bias f4 [16]
00000000: b24a 953d a546 803d 5275 343d 0b48 90bc
00000010: 4141 4bbd ce36 483d b920 673d f769 8d3d
00000020: 0172 103d 20d3 4fbc bf5c 4c3d 37f0 b3bc
00000030: 8528 43bd 70c3 7dbd 96dd 5a3d e8ed 92bd
0.072896376 0.062634744 0.044057198 -0.017612478 -0.049622778 0.04888039 0.05642769 0.06904977
0.035264973 -0.0126846135 0.049893137 -0.02196513 -0.047646064 -0.06195396 0.053433977 -0.07174283

network_body.observation_encoder.processors.0.conv_layers.0.weight f4 [16, 3, 8, 8]
00000000: 78b6 6bbc 43af f53c ef48 863d d8d5 e13c
00000010: 0d73 8d3d c4b5 623d f8ad 223d b703 9d3d
00000020: 6dcd 343d 526a 7d3d 319c 063d 6a7a a13c
00000030: ddca 8c3c 6131 303c 7335 56bd 682c 82bd
00000040: 95c1 db3c abd4 4e3c 5138 4d3c 0bbf 333d
00000050: 80d2 023d ea0c 30bc fe5b 0ebc e92c 9d3d
00000060: 8783 b9bc 5a10 1abc eb6f 86bd 930a 9c3d
00000070: e342 53bd d783 27bd 0b73 2e3c 0456 17bd
00000080: 61db a93c 24d1 b6ba 7b85 273d ba9b 323d
00000090: bdd1 1b3d 53c6 4e3d 7c44 9cbc 0929 d93c
000000a0: a99e 61bc 4ee6 373d 71d6 16bd 48a2 453c
000000b0: 5119 7fbd 1cf1 143c 34eb f03c f39d fa3c
000000c0: 929f 9a3c cd32 933d fb05 fc3c 797b 81bd
000000d0: 9aca 483d 28da 4a3d bde7 53bd 46c5 08bd
000000e0: aa37 19bd a70b 863d 1dd3 33bd ddab 983d
000000f0: 34d0 debc 0574 243d c988 7abc 1c0f 683d
00000100: bba3 23bd 2ddc 88bd 3245 803c 8d9c 8b3d
00000110: e784 7e3b 7ad1 78bd c3f3 7a3d ff73 10bd
00000120: a801 6f3c 8952 613c 51dc 663d 5e57 8abd
00000130: 8ea9 eaba fa7b 323d 3305 723d 951e 9fbc
00000140: 0999 ccbc ae1c 6bbd 8f9e 863d 03e6 0fbd
00000150: 78a8 29bd d292 aabc 07b9 ffbc 1744 21bc
00000160: 73ce 05bd d055 8c3d 94b3 883a 102a 5abd
00000170: b608 763d 0b3e c13b d11a 273c 709d 3d3d
00000180: 3ea4 043d 470c 2bbd 7eec 073d 7775 a33c
00000190: da9c 7ebd 4baa 98bb 78c4 71bd 387a e73c
000001a0: c5ca 443d 4620 863d a5bc 7dbd 9913 9cbb
000001b0: 6ff5 28bd 8062 58bc d33d 983c 0f56 a83c
000001c0: fc15 433d fa2b 8f3d 9e7f 5dbd cc44 41bb
000001d0: c772 6b3d 66ee 4b3d ea12 073d 0ba6 3b3d
000001e0: bd74 e23c 606c 173d 0dea 5bbd 37e5 1c3c
000001f0: dfa5 7cbd be30 03bd 49dd ff3c db4e 8cbd
00000200: d814 8f3d 8c3c 863d a09e d5bc 2bd7 fb3c
00000210: ce5a 96bb e0a2 03bd 5261 92bb 0faf 87bd
00000220: 0e2d 9abc 3368 a03c 53ec 83bd ba6c 05bc
00000230: a8bd b63c 7703 71bd fa12 4e3d cc7b 1dbd
00000240: a965 593d 9a44 793d 461d cf3c c9fd 613d
00000250: 5e2a e8bc 8600 653b e9ae 02bd 7b96 2b3c
00000260: 536e 4bbc 097b 5ebd d909 78bd c7cf 8b3c
00000270: 4e62 b7bb 3dbc 0cbc 0bd0 88bd fe9f 803d
00000280: 1e09 8bbc cc75 abbb 774f eb3c ddce 53bd
00000290: d151 753c 6f88 febc cb20 3b3d 2334 87bd
000002a0: 28cf 613d 2607 48bd dfc9 4bbd 9c1f 68bb
000002b0: 81fb 283d e99a c93c 0074 62bd b5ea ab3b
000002c0: 6e11 85bd c06a 2cbc c418 c1bc db65 5bbd
000002d0: 4131 8b3d ba0e 633d 7afa 593d f86d 2c3c
000002e0: 9326 21bc d06f 90bc cd4b 05bc 56d8 943d
000002f0: 537e 273c 9080 093c 8ab9 803d 018b bb3c
00000300: 65bb 833d ff96 2abd 7663 0dbb 0a78 86bd
00000310: b7f1 6dbc 765b 6f3d f581 94bd f3eb ee3b
00000320: deda 603c 4fa6 643b ec66 0b3d 3fb3 273d
00000330: 39b1 483d 2416 0cbc b932 06bb 50f5 63bd
00000340: d5a5 90bd d830 5ebc 604f ea3b 70b8 3abb
00000350: b54c 7cbd 7656 37bd c29b 663d 5a36 733d
00000360: 068e 883c 3234 3d3d 0361 95bd 36d7 0bba
00000370: b669 893c 7da9 04bd c28e 7ebd e87c 8f3c
00000380: 6124 6abd e3df 24bd 65fe 19bd 6a5e 76bd
00000390: bab7 1b3d 20a8 8abd aec1 523d 6c1a a93c
000003a0: 27f0 873c 47c3 f03c 78a5 46bd a7d8 8e3c
000003b0: 7807 98bd 5c24 8cbd fb38 89bd 567e c8bc
000003c0: 5560 7c3d ebdd 603c 30c8 8e3c 006e 453d
000003d0: a00c 113d 4fcc f53c 4509 89bd 8de9 19bd
000003e0: 7a10 423d e502 d53c bf59 49bd ff60 4dbb
000003f0: a28e 63bd 69ad 1cbd 20df 88bd f53f 41bd
-0.014386766 0.029990798 0.0655688 0.027567789 0.0690671 0.055349126 0.03971669 0.07666724
0.04414122 0.061868973 0.0328638 0.019711692 0.017186577 0.01075396 -0.052297067 -0.06356126
0.026825706 0.012623946 0.012525634 0.043883365 0.03193903 -0.010745266 -0.008688925 0.076745816
-0.022645725 -0.009403313 -0.065643154 0.07619204 -0.05157746 -0.040897217 0.010647546 -0.036947265
0.02073449 -0.0013947827 0.04089878 0.043605544 0.03804182 0.050482105 -0.019075625 0.026508825
-0.013770738 0.04489737 -0.0368256 0.012062617 -0.062280003 0.009090688 0.029409029 0.030592894
0.018874917 0.07187424 0.03076457 -0.06322379 0.04902134 0.049524456 -0.051734675 -0.03339126
-0.0374066 0.06545191 -0.043902505 0.07454655 -0.027198888 0.040149707 -0.015291401 0.056655034
-0.039951067 -0.0668262 0.015657995 0.06816969 0.003883654 -0.060746647 0.061267626 -0.035266872
0.014587797 0.013752588 0.056362454 -0.06754945 -0.0017903314 0.043575265 0.05908699 -0.019423762
-0.024975317 -0.057400398 0.065732114 -0.035131466 -0.04142043 -0.020821963 -0.031216158 -0.009842894
-0.03266759 0.06852305 0.0010429495 -0.05326277 0.0600669 0.0058972887 0.010199265 0.046292722
0.032383196 -0.041759755 0.03318452 0.019953473 -0.062161304 -0.0046589724 -0.059025258 0.02825652
0.04804494 0.065491244 -0.061947484 -0.0047630784 -0.04124969 -0.013207078 0.018584168 0.020548848
0.047628388 0.0699081 -0.054076783 -0.002949047 0.057482507 0.0497879 0.032977022 0.045812648
0.027643556 0.03696859 -0.053690005 0.009576133 -0.061681625 -0.032028906 0.031233447 -0.06850978
0.069863975 0.06554517 -0.026076615 0.030742249 -0.0045884615 -0.03213775 -0.004467168 -0.06625187
-0.018820312 0.019580936 -0.0644156 -0.008143598 0.022307232 -0.058841195 0.050311066 -0.03844814
0.053075466 0.06085644 0.025282513 0.05517367 -0.028340515 0.003494294 -0.03190509 0.010472889
-0.01241644 -0.054316554 -0.060556266 0.01706685 -0.0055964356 -0.008589801 -0.06680306 0.06280516
-0.01697212 -0.0052325483 0.028724415 -0.051710952 0.01497312 -0.031070916 0.04568557 -0.06601741
0.0551292 -0.048834942 -0.049753066 -0.0035419231 0.041255478 0.02461 -0.055286407 0.005246485
-0.06497465 -0.010523498 -0.02357138 -0.053563934 0.06796504 0.055433966 0.05321739 0.0105242655
-0.009835857 -0.017631441 -0.008135748 0.07267825 0.010222989 0.008392468 0.06285389 0.02289343
0.06432227 -0.041647907 -0.0021574176 -0.065658644 -0.014522961 0.058436833 -0.0725135 0.007291311
0.013724057 0.0034889167 0.0340337 0.040942427 0.048997138 -0.008550201 -0.002047701 -0.05565387
-0.0706288 -0.01356145 0.0071505755 -0.002849128 -0.06159659 -0.04476019 0.056300886 0.059378006
0.016669285 0.046192355 -0.07293894 -0.0005334498 0.01677404 -0.0323882 -0.062147863 0.017515615
-0.0571636 -0.040252578 -0.037596125 -0.060148634 0.038017012 -0.067703485 0.05145424 0.020642482
0.016594006 0.02938999 -0.048497647 0.017437292 -0.074232996 -0.068428725 -0.06700321 -0.024474304
0.061615307 0.013724784 0.017429441 0.048200607 0.03541243 0.030004648 -0.06691221 -0.037576247
0.047378995 0.026002357 -0.049157854 -0.0031338332 -0.055555947 -0.038251314 -0.06683183 -0.047180135

network_body.observation_encoder.processors.0.conv_layers.2.bias f4 [32]
00000000: 2c02 7c3d f62b 44bc 71d1 783d 21f8 bb3c
00000010: e0e9 8abd 695d 0fbd b504 23bd 7c9b 5a3d
00000020: 940b 443d 529c e6bb 8b73 30bd 6d58 13bd
00000030: 4298 5c3d 0b03 873d be3a c93b f396 1abd
00000040: ce45 7dbd 5ca4 9a3d 2a65 283c 80f1 cb3c
00000050: 8c0b 88bd 4804 62bd a0eb c2bc 4777 2b3d
00000060: e1c1 4d3d 31da 183d b890 f03c c144 893d
00000070: c32a 72bd bd50 8f3d f7bf 8dbd 7e7c 25bd
0.06152551 -0.011973372 0.060746614 0.022945466 -0.06782889 -0.035001192 -0.03979941 0.053370938
0.047862604 -0.007037678 -0.04307894 -0.035973 0.053856142 0.06592377 0.006141036 -0.037741613
-0.06183415 0.0755088 0.010278026 0.02489543 -0.066428274 -0.055179864 -0.023793995 0.0418618
0.050233725 0.03731746 0.029365882 0.06702567 -0.059122812 0.069978215 -0.0692138 -0.040401928

network_body.observation_encoder.processors.0.conv_layers.2.weight f4 [32, 16, 4, 4]
00000000: 11ee d3bc dc8b abbc a758 cbbc ae97 61bd
00000010: 89d9 073d bc3e 61bd 4780 5ebd 1276 433d
00000020: 118b 943c afbd 13bd 5f0b 56bd ec80 32bd
00000030: f284 65bc e06e 543d db49 a4bc 1c95 afbc
00000040: 8d45 4a3d 9f11 763b 5318 65bd 06f3 813d
00000050: 7f3c 0b3d 0c0e 833d e6a0 f83c 1148 ddbc
00000060: 3bf6 48bd 76ef 773d ebfa 0dbd e137 5abd
00000070: 598b 5bbc c511 1cbd 7c4e 4bbb e4e0 66bd
00000080: 1691 ed3c 1c71 db3c cfcc bfbc 3027 3abd
00000090: 1c05 0f3d a993 9c3c b17c 3fbd 2a05 cf3c
000000a0: 94dd 3fbd 3726 d03c 66fb 8d3b 74b9 83bd
000000b0: 2b58 dd3c 2905 293d 3038 fabc 4905 d9bc
000000c0: 0302 a73c 374f 293d d022 1e3d a3ac 3cbd
000000d0: 136b f8bb 470c 4abd 9554 8ebc 207b 5f3d
000000e0: 573e fe3c a387 863d 02cc 10bd 55ac 953a
000000f0: 6249 08bb 8617 74bd b468 0e3d 93c3 93bc
00000100: e716 1bbd 890f b33c b006 433d 1ef3 63bd
00000110: 1634 f83c c0ca 3d3b fd7f 1fbd 5ea7 cbbb
00000120: 4d13 543c ab06 1e3d 2e15 d33c 863e 19bd
00000130: 7ed3 6c3d 33f1 143c 0a88 6e3d 2b0d a4bc
00000140: 6987 a0ba ce94 85bb 2c03 40bc ef66 03bd
00000150: 6c2d 7fbc e711 033d 684f 403d 9c75 12bc
00000160: a5c9 89bd df35 bcbc 4f6f eebc 2c81 f7bc
00000170: 02e8 1cbd 7c3f 3b3d 1628 41bd ccaa 6dbd
00000180: faf4 a2bc 5389 d6bb 2402 f93c 7ca1 db3c
00000190: fe66 6d3b 00c0 d539 45c2 61bd d4b9 c9bc
000001a0: c5fc 84bd 35b3 dfbc 21b0 5fbb 2e43 f2bc
000001b0: 44ed 763d 7351 f6bb 268d 5ebd 28e5 abbc
000001c0: 271d 55bd 72d0 3fbd fc40 843d cd95 953c
000001d0: d2e6 77bb 9626 36bd 51df 65bd e299 17bd
000001e0: 7504 afbc 2a72 2cbd c92b 6cb9 29e1 663d
000001f0: c0aa 1dbd e794 533d 2e9c ccbc f9c2 44bd
00000200: 09be 3abd e18e c3bc bce7 143d 73db 1fbd
00000210: 8f5a 3abb 14ed 96bb 7ed9 653d f798 57bd
00000220: f167 48bd aed3 5e3d 5da6 55bd 0883 513d
00000230: 22d4 2239 9809 15bd af2d 71bb 7ef1 b43c
00000240: 8826 113c 8853 5bbd 8de0 b5bc dc68 1ebd
00000250: ac5e f53b c15f 123d 1375 2d3c bcbd 6cbc
00000260: a47f c6bc 4fb1 0aba fc8e e73a 646d 123d
00000270: 2381 033d 2d04 cdba 5a50 273c 8569 abbc
00000280: d252 993c 0cb7 8f3c 73f5 81bd 95c2 0c3d
00000290: fd1f 87bd 448a 1abd 5f08 393d bfc5 86bb
000002a0: 03da 91bd 583a 783c fddb 75bd b9cf ebbc
000002b0: fc56 0d3d 0a31 473d 578c 79bd eff5 86bd
000002c0: 82c4 01bc efef 673c 8d5c 5f3c 0132 813c
000002d0: 7af4 043d 73ad fabc c14b 0c3d 06a4 503d
000002e0: 1333 3e3d 6946 f6bc cff6 fb3c 129b a43c
000002f0: 44ef b83c e167 81bc 8903 ac3c df85 cc3c
00000300: a3d5 ba3b 77dd 693d bac2 5ebd 6f09 773d
00000310: 2d15 263d 887d d43c 941d 133d 0ad0 d73c
00000320: 3787 473d fca9 483d d35e 353d a5dd d4bb
00000330: 1950 fbbc 9fbd 703d dfbe 4f3d 44e9 7a3d
00000340: 2a5c 44bd 22d3 89bc 0f0d 05bd 86e9 9c3c
00000350: b834 73bd e7ec 233d 29e8 52bd 3717 3d3c
00000360: 8cab b2ba 5b4e 0b3b 4409 503d fcd0 0dbc
00000370: f105 88bd 2ff0 063d 94aa 31bd 9b78 81bd
00000380: 48c5 923b d206 5c3d a656 d23c 6843 85bd
00000390: 62b8 f53c 42d0 9fbb 5ce9 18bc f70e f23a
000003a0: ec60 35bd a5f9 68bd 5fd4 57bc 85d2 533d
000003b0: 473e 73bd 093b d03c dfce b43c b801 48bd
000003c0: 8c9d c6bc 8f1b 04bc 0bc3 653b 06af 403c
000003d0: 186b 1e3d 1c5d 7a3c 0a97 ef3c 010c 403d
000003e0: ea27 683d bcd0 e1bc 333e d43c d4cf 7abd
000003f0: 970c 5b3c 3fed 4f3d ea8b ed3c c085 02bc
-0.025870355 -0.020940714 -0.024822546 -0.055076294 0.033166442 -0.05499147 -0.054321554 0.047720022
0.018132718 -0.03606957 -0.052256938 -0.04357998 -0.014008747 0.05186355 -0.020054748 -0.021433406
0.049382735 0.0037547124 -0.0559314 0.06345181 0.03399324 0.063991636 0.03035016 -0.027011903
-0.04906295 0.060531102 -0.034663122 -0.053275947 -0.013399922 -0.038102884 -0.0031022122 -0.056366816
0.028999846 0.026787333 -0.02341309 -0.04544753 0.034916982 0.019113379 -0.046749774 0.025271017
-0.046842173 0.025408847 0.0043329475 -0.06431857 0.02701958 0.041264687 -0.03054437 -0.026491778
0.020386701 0.04133531 0.03860742 -0.046063077 -0.0075811236 -0.049328115 -0.017374316 0.05456078
0.031035585 0.065688394 -0.035350807 0.0011419157 -0.0020795693 -0.059592746 0.03476782 -0.018037593
-0.03786364 0.021857994 0.0476138 -0.055651776 0.030298274 0.002895996 -0.03894042 -0.00621502
0.012944055 0.038580578 0.025766935 -0.037413143 0.057818882 0.0090907095 0.058235206 -0.02002581
-0.0012247387 -0.004076577 -0.011719506 -0.032080587 -0.015574794 0.031999495 0.046950728 -0.008939173
-0.06727914 -0.022974906 -0.02910581 -0.030212961 -0.038307197 0.04571484 -0.04715737 -0.058024213
-0.019892205 -0.006547132 0.030396529 0.0268104 0.0036224718 0.00040769577 -0.05511691 -0.024624743
-0.064935245 -0.027307132 -0.003413208 -0.02957305 0.060284868 -0.0075170337 -0.05433383 -0.020983294
-0.052029755 -0.04682965 0.06457707 0.018259907 -0.0037826789 -0.044470392 -0.056121174 -0.03701199
-0.02136443 -0.042101063 -0.00022523025 0.056367073 -0.038492918 0.051655676 -0.024976816 -0.048037503
-0.045591388 -0.02387184 0.03635381 -0.039027642 -0.0028435325 -0.0046058986 0.05611562 -0.052636113
-0.04892725 0.054401092 -0.05216061 0.05115035 0.0001552855 -0.036386102 -0.0036800911 0.022087809
0.008859284 -0.05354646 -0.0222018 -0.03867422 0.0074880924 0.03573585 0.010586995 -0.014449533
-0.024230786 -0.0005290703 0.0017666514 0.035748854 0.032105576 -0.0015641503 0.010212028 -0.02092434
0.01871625 0.017543338 -0.06345644 0.034365255 -0.06597898 -0.037729517 0.045174 -0.0041129286
-0.071216606 0.015150629 -0.06002425 -0.028785573 0.034506783 0.04863075 -0.060924854 -0.06589877
-0.007920386 0.014156326 0.013632906 0.015770914 0.032459714 -0.030600285 0.034251932 0.050937675
0.046435427 -0.030062871 0.030757336 0.020093475 0.022575028 -0.015796604 0.02099778 0.024966178
0.005701737 0.05709597 -0.054384924 0.06031173 0.04054754 0.025938764 0.03591688 0.026344318
0.048712935 0.048990235 0.044279885 -0.0064961486 -0.030677842 0.058774587 0.05071914 0.061257616
-0.047939457 -0.016824309 -0.032483157 0.019154321 -0.05937645 0.04002085 -0.051490936 0.011541179
-0.0013631447 0.002125642 0.050790086 -0.008655783 -0.06641758 0.0329439 -0.043375567 -0.06321832
0.004479084 0.05371744 0.025676083 -0.06506997 0.029995147 -0.004877121 -0.009332981 0.0018467595
-0.044281885 -0.056878705 -0.013173192 0.05171444 -0.059385564 0.025418775 0.0220713 -0.048829764
-0.024245046 -0.008063211 0.0035058882 0.011760479 0.03867635 0.015280988 0.029246826 0.046886448
0.05667869 -0.027565353 0.025908565 -0.061233357 0.013369701 0.050763365 0.02899738 -0.007966459

network_body.observation_encoder.processors.0.dense.0.bias f4 [128]
00000000: 6e3c 923c f793 b43b 1a8e a1bb af36 8dbc
00000010: 638b 3ebb edcc 863c b85a 963c 19d5 543a
00000020: c385 1d38 3acb 5eb8 9d35 11bb f532 4abb
00000030: fa4f 8f3c 52ad 23bb d4dc 3f3c fc9f 263b
00000040: de35 6aba 6b6e 3dbb eee8 ecbb 0716 35bb
00000050: 5804 1abb f8a2 4e3b fb74 9b3c af56 4bba
00000060: a0bd a2bb afbf 1b3b 0ff8 02bc b6be d8ba
00000070: 5f79 76ba 26f3 863b b388 9bba 8609 bfba
00000080: 4a63 42bb 4aef 3bbb 0375 b3bc 51e1 673b
00000090: 2f46 a13b d599 2fbb 7fa6 08bc 26f3 303c
000000a0: 7e15 2f3c 2fe9 dbbb fa53 2e3b c122 19bb
000000b0: 92a6 9cbb 3209 873c 45e7 f43b aff8 c4bb
000000c0: eb1f 0c3b 3d2a d0bb 94df b0bb 4b2b 82bc
000000d0: 868d 0fbc 089a 53bc 3b79 03bc 9358 633c
000000e0: 3ad4 56bb 3521 703c 1dae c139 7519 dbbb
000000f0: 32fc 13bc 0c7b c939 4cc4 32bb d4ff 733c
00000100: 8dc2 aabb dec3 053c 686c 66bb c17b ebba
00000110: 3e26 d1ba 814f b53b 681a 103b e9d1 19bc
00000120: fae1 cdba 7793 e8bb 0e28 2bbc 4955 b23c
00000130: 3dba 5639 dd4e 5c3c 489f 80bb 9233 9e3c
00000140: d01f 35ba af27 7e3c c8d5 69bb e3cf c9bb
00000150: e383 113c f15b 69bb 651a 83bc d75d d2ba
00000160: d3f9 d6ba db51 c6ba d449 743c 5198 183c
00000170: 01aa b33b 8d18 a1bb a82c 13bc 7a21 36b9
00000180: 5df3 83ba d22f 8abc 9dc8 88bc 9938 e9bb
00000190: 493f ac3b 202b 2dbb fcb7 46bb 8e1b 8d3b
000001a0: a0e0 883a 9686 14ba bf37 f5b9 2371 61bb
000001b0: 3c6b b73a a379 85bb c44f 963c f630 b5ba
000001c0: 7513 70bb a76d 1f3c dc52 a33c d214 543c
000001d0: 6401 b3bb 9bbd 80bb f1fd 413c 2f74 7b3a
000001e0: 264f b4bb ef38 53bb e854 ceb9 6b2a 6a3a
000001f0: dca2 42bb 4d19 9fbb 4d8f 04bb 2e19 05bc
0.01785108 0.005510803 -0.00493027 -0.01723799 -0.002907478 0.016455138 0.018353805 0.0008118912
3.7556292e-05 -5.3118194e-05 -0.00221572 -0.0030853127 0.01749419 -0.0024975133 0.011710364 0.0025424948
-0.00089344184 -0.0028904926 -0.007229916 -0.0027631538 -0.0023501124 0.0031530242 0.01897668 -0.00077567523
-0.0049664527 0.0023765375 -0.007993712 -0.0016536328 -0.0009402241 0.004118341 -0.0011866301 -0.0014574982
-0.0029661232 -0.0028676563 -0.021906381 0.0035382102 0.0049216966 -0.0026794572 -0.008340477 0.010800159
0.0106862765 -0.0067111473 0.0026600347 -0.0023366662 -0.004780599 0.016483877 0.0074738585 -0.0060110907
0.002138133 -0.0063526914 -0.0053977463 -0.015889784 -0.008761769 -0.012915142 -0.008024509 0.013876098
-0.0032780305 0.014656355 0.00036941553 -0.0066863843 -0.009032296 0.00038429385 -0.0027277647 0.014892537
-0.0052111805 0.008164374 -0.003515983 -0.0017965959 -0.0015956832 0.0055331592 0.0021988396 -0.009388425
-0.0015707605 -0.0070976573 -0.0104465615 0.021769183 0.0002047801 0.013446537 -0.003925238 0.0193117
-0.00069093425 0.015512391 -0.0035680402 -0.006158815 0.008881542 -0.003560778 -0.016003797 -0.0016049695
-0.0016401358 -0.0015130596 0.01491018 0.009313659 0.0054829125 -0.0049162568 -0.008982815 -0.00017369344
-0.0010067035 -0.016868506 -0.016697222 -0.0071173427 0.0052565676 -0.002642341 -0.0030322066 0.0043062633
0.001044292 -0.0005665807 -0.00046771576 -0.003439971 0.001399375 -0.004073338 0.018348582 -0.0013823796
-0.003663269 0.009730733 0.019936971 0.012944417 -0.0054628123 -0.0039288527 0.0118403295 0.0009592203
-0.0055025993 -0.003222998 -0.00039354642 0.00089327124 -0.0029699123 -0.004855311 -0.0020227015 -0.008123679

network_body.observation_encoder.processors.0.dense.0.weight f4 [128, 1152]
00000000: 1160 053d 36d5 a03d c082 273d 236e 143d
00000010: 7da7 a83c 12ca 683d 6b59 973d 39aa 68bc
00000020: 569b 813d 63a8 02bd e1f8 5bbd cfe9 f93c
00000030: 47b5 093d 32f4 2abd bd1b de38 29be 1e3d
00000040: e40c 083d 43a6 743d 0796 433d 0789 ac3d
00000050: 4e4f 7dbd 3fc5 063c 1725 f83c 9aa3 5dbc
00000060: cc0a 13bd 2f99 b23b bba5 5c3d 5bee 2fbb
00000070: 05a9 013d 2065 e93b 0fe7 583d 0184 ae3d
00000080: bd35 173d 28cc 863d 1089 263d 6362 2cbd
00000090: e755 f03c 37dc fbbc dde1 a63c 1772 1dbd
000000a0: 49b7 2d3b 8492 fe3c 8409 ba3b 7f42 153d
000000b0: 2024 7d3d 4cce 7f3d fb9e aabc 8c75 03bd
000000c0: 0aef ddbc c99a 67bd 72b0 393c b245 d4bb
000000d0: 2c6f ccbc 20ab 20bd 38cf ca3c 6fd6 873c
000000e0: c86f e8bc fbbf 40bd 76cb c53b afde 60bd
000000f0: 080a 303c f9eb 06bd e2ac 90bc f54d 53bd
00000100: 8462 203c fd85 d8bc 7b03 33bd 8aa3 11bd
00000110: e921 2fbc 030e 503d 02a9 87bc 6a07 013d
00000120: b8ed 233d c189 ef3c 1a7d 033e e7ce 83bc
00000130: 91bf 563c 043e 22bd eef7 15bc 0616 b73d
00000140: 0a20 513b 93a3 b73c cb3d 8cbc 284c 363d
00000150: 71ea a039 7f21 723c 1f8f 683d 4e3b a3bc
00000160: d8f7 453d 6b38 c039 a1f6 6d3d 1036 773c
00000170: 6c56 c43a be68 383d c625 39bc 0d5d 2a3c
00000180: fc49 b2bb 7d38 c6bc 3f6c 7fbc 693f 47bb
00000190: 4c7f 0dbd f87f 8b3b e578 043c 855a 76bd
000001a0: 6304 a13c 7666 fb3c 9229 a1bd ada5 8fbd
000001b0: 37e6 9abd ff8a 9d3d 1852 a43b 7b3c b5bc
000001c0: a8dc a7bc 41e5 03bd 82ee ccbb 56c4 03bd
000001d0: 2cda 46bb 123f e23c 3579 943d 9da4 1fbd
000001e0: 4c87 483d 483a d83c e297 903c f9b1 063d
000001f0: 0c25 3fbb 22da 63bd fa47 5e3b 066c 1e3c
00000200: 582e 89bd b724 e43c 89df 93bb 3b5b 99bd
00000210: 076d c13c b728 b13c 0bf7 eb3c c2d8 d43c
00000220: b3d6 e03b 62a5 e3bc 81c4 8b3c d9f0 07bd
00000230: cb92 353d 256c bd3c 8174 a33d 1038 32bc
00000240: 18e7 0bbc 3796 0e3d ea08 a5bc 2ec4 30bd
00000250: b066 e03b ae75 9cbc 7e7a 843c 002c ef3c
00000260: 245f 723d 711e bc3d 60bd 263d ee0b 69bd
00000270: d087 f5bc a256 f1bb f005 d53b 9215 febc
00000280: d673 dc3d db22 c33b 646e 073d 12b4 453d
00000290: 4338 2cbd 4a59 dcbc 6a99 ebbc ab77 9fbc
000002a0: 6bdc 553d d57f b0bc f51c 87bb 4790 ef3c
000002b0: 3999 3cbd 28ab babc dd28 67bd ce48 0cbd
000002c0: c2c8 73bc ed73 263c e3b8 f5bd 6f3d 50bd
000002d0: cacb 083c af69 683d 94b0 593d 6cf9 033d
000002e0: 469a 833c 3eef 993c f067 03bd 79f7 803c
000002f0: ea5c d4bb f58f 393c 5ceb db3d 41c0 313d
00000300: 99e7 ae3c 340b af3d a27e b13b 15a1 bf3d
00000310: 5cd4 1abc 837b 8fbd 3d0e 713d d79c 803d
00000320: 2dee b7bc c86e b73d d857 61bd 0e93 70bd
00000330: 8796 8e3d 47c0 06bd 20f6 923d ec62 6c3d
00000340: e4c7 6a3d 603a 633d cf2f dabc 44ed bf3c
00000350: 6bc5 1fbd 4ae2 91bd c528 813d b842 083c
00000360: a61a 95bc 4df6 ac3c 2cba 47bd 77c1 4fbc
00000370: 6a06 8b3c 9abe 0abe c060 9c3d 564c d43c
00000380: 0e7d 903c ad69 22bd 5473 8a3d 47a6 8d3d
00000390: 0bb2 823c 35cf 843a 23a6 1e3c ab46 953c
000003a0: 81d8 21bd cb46 39bd 1a04 8d3d 00d8 ee3b
000003b0: 3ffe cd3b bac6 af3d c49d 773c d0af a03d
000003c0: c115 1f3d 9e6a 7abc ae90 3cbc b9e3 2b3b
000003d0: ed72 95bc a3e7 833b ab0b 9f3b 7ac9 bebc
000003e0: 75fb 6c3d bb3b b43c 5aa8 96bd 4ae5 6d3d
000003f0: 9c4e f33c 4bbb acbd b0dc 64bc dbfe a53d
0.03256232 0.07853167 0.040896177 0.036237847 0.020587677 0.056833334 0.07390102 -0.0142007405
0.06328456 -0.031898867 -0.053704146 0.030506996 0.033620145 -0.04173679 0.000105909516 0.03875557
0.03321542 0.059728872 0.0477505 0.084245734 -0.06184321 0.008225738 0.030291123 -0.013527775
-0.03589897 0.00545039 0.05386899 -0.0026844952 0.03165533 0.0071226507 0.05295473 0.085212715
0.036916483 0.065819085 0.040658057 -0.042086016 0.029337836 -0.030744655 0.020371372 -0.038438883
0.0026506952 0.031075723 0.005677404 0.03644037 0.06180203 0.0624526 -0.02082776 -0.032094523
-0.027091522 -0.0565441 0.011333572 -0.006478035 -0.024955355 -0.039225698 0.024757013 0.016581742
-0.028373614 -0.047058087 0.0060362173 -0.054899868 0.010744579 -0.032939885 -0.017660562 -0.051588017
0.009789113 -0.026431078 -0.04370449 -0.035556354 -0.010689237 0.050794613 -0.016560081 0.03150121
0.04002163 0.02924049 0.12840691 -0.01608987 0.013107196 -0.039609924 -0.009153349 0.089397475
0.0031909966 0.022416865 -0.017119309 0.044506222 0.0003069225 0.014778494 0.056777116 -0.01992574
0.048332065 0.00036663128 0.05809653 0.015088573 0.0014979369 0.045021765 -0.01130051 0.010398162
-0.0054409485 -0.024196858 -0.015589773 -0.0030402786 -0.034545228 0.0042571984 0.008085464 -0.06014492
0.019655412 0.030688506 -0.07869257 -0.07014022 -0.07563441 0.07692527 0.005014669 -0.022123566
-0.02049096 -0.032201055 -0.0062540183 -0.032169662 -0.0030342443 0.027617965 0.07249681 -0.038975347
0.048957154 0.026394978 0.017650548 0.03288457 -0.0029166369 -0.05562795 0.0033917413 0.0096693095
-0.066982925 0.027849538 -0.0045127315 -0.07488104 0.023611559 0.02162586 0.028804323 0.025982264
0.0068615316 -0.027788822 0.017061474 -0.033188675 0.044329446 0.023122856 0.07981206 -0.010877624
-0.008538984 0.034811225 -0.020145852 -0.04315584 0.006848179 -0.019099083 0.01617169 0.029195786
0.059172764 0.09185494 0.040707946 -0.056896143 -0.029971987 -0.0073650638 0.006500952 -0.031016145
0.107642815 0.005955083 0.03306426 0.04826743 -0.042045843 -0.026898045 -0.028759677 -0.019466242
0.05221216 -0.02154533 -0.004123325 0.029243601 -0.046044562 -0.022786692 -0.056435455 -0.03424912
-0.014879407 0.010159475 -0.11998155 -0.050839838 0.008349368 0.056741413 0.053146914 0.03222029
0.016064774 0.018790837 -0.032081544 0.015743004 -0.006480803 0.011325826 0.107382506 0.04339624
0.021350669 0.08547059 0.005416707 0.09356896 -0.0094500445 -0.0700598 0.05885147 0.06279915
-0.022452438 0.08956677 -0.055015415 -0.058733992 0.069623046 -0.032898214 0.07175851 0.057711527
0.057319537 0.055475593 -0.026634125 0.023428567 -0.03900663 -0.07123239 0.06306604 0.008316688
-0.018201184 0.02111354 -0.04876153 -0.012680403 0.016970832 -0.13549271 0.07635641 0.025915306
0.017637756 -0.03965156 0.06760278 0.069164805 0.015954038 0.0010132553 0.009683165 0.018222174
-0.039513115 -0.04523353 0.06885548 0.007288933 0.006286412 0.08582826 0.015113298 0.078460336
0.038839106 -0.015284209 -0.011509104 0.0026228263 -0.018243277 0.004025416 0.004853686 -0.02328943
0.057856996 0.022001138 -0.07356329 0.058079995 0.02970057 -0.08434161 -0.013968632 0.081052504
